AEGAN-Classification/GSE25066/generator.pth (torch, 923431 bytes, 6 tensors)

model.0.weight f4 [128, 512]
000000 25 31 26 3b 11 d7 23 3d 16 0a 2e bd f1 56 e4 bc
       0.0025358882 0.040000025 -0.042490087 -0.027873488
000010 12 b3 78 bc 75 5b 71 bc 5d 33 de bc eb 44 73 3c
       -0.015179412 -0.014731278 -0.027124101 0.014847974
000020 bd 5e 91 3c 0f ee e2 bc 68 89 61 bc 8b ad af 3b
       0.01774537 -0.027701406 -0.01376567 0.005361264
000030 94 dd cf bc f7 e9 8f 3c 24 db 2d 3d 95 1d ac 3c
       -0.025374211 0.017567618 0.042445317 0.0210102
000040 d8 10 bf 3c e1 26 03 bd 7e 36 17 3d 94 b2 65 bc
       0.023323461 -0.0320195 0.036917202 -0.014019627
000050 f2 a4 25 3c 39 71 91 bb 41 b0 3b 3b 5a 3e 3f 3c
       0.010110127 -0.004438546 0.002863899 0.011672581
000060 f5 0c 9a 3c 8c 7c 1b 3c 44 b1 a9 bc 79 19 1d bd
       0.018805007 0.0094901435 -0.02071441 -0.03835437
000070 fc 25 f6 bc e8 33 52 3c 51 50 fb ba fa 9e 83 3c
       -0.03004741 0.012829758 -0.0019173716 0.016067017
000080 16 81 f1 bb 55 7b 7b bc 4c c9 9b 3c ad fe af 3c
       -0.0073701246 -0.015349229 0.019016884 0.021483744
000090 ba f1 0a bd 6d f2 24 3d 79 f6 10 3c 48 3a 59 ba
       -0.033921935 0.040270258 0.008847826 -0.00082865776
0000a0 e8 3a a9 bc 77 21 e4 bb 2a 6b ac 3c b8 5e 8d 3c
       -0.020657972 -0.006961997 0.021047194 0.01725708
0000b0 47 1b fd 3c 10 c7 e6 3b 73 20 2a 3d b3 23 29 bd
       0.030896796 0.007042773 0.041534852 -0.04129381
0000c0 7a 82 33 3d d4 80 35 3d d9 15 1e bd 5e 50 4e bc
       0.043825604 0.044312313 -0.038595054 -0.012592403
0000d0 4a 2f 05 bd 7a 27 b0 bc 0b a9 54 ba ab bc 35 bd
       -0.0325158 -0.021503199 -0.00081123476 -0.04436938
0000e0 86 e0 09 bc 91 aa 17 bd f6 5f ee 3c 22 4b b6 bc
       -0.008415347 -0.0370279 0.029098492 -0.022252623
0000f0 b6 93 20 bd a5 e6 13 3d 03 d1 c4 3c e3 7f f6 bb
       -0.039203368 0.03610863 0.024025446 -0.0075225695
000100 46 ea 45 bc 7d 81 5c bc 42 84 3d bc 1e fb e0 3c
       -0.012079781 -0.013458607 -0.011567177 0.027463492
000110 77 ab c2 3c 91 43 07 3d 1b 66 c6 bc f7 6d 11 bd
       0.023763401 0.03302342 -0.02421861 -0.03550526
000120 a2 5e 74 3c 35 3d 21 bd 83 21 06 3d 11 8c ea 3c
       0.01491514 -0.039365012 0.032746803 0.028631242
000130 64 71 e6 3b 08 c3 92 3b b9 48 70 3c a0 ed ab bc
       0.00703256 0.004478816 0.014665776 -0.020987332
000140 38 f8 32 bd 1e 37 0b bc 78 8d 11 bd b2 43 56 3c
       -0.04369375 -0.008497028 -0.035535306 0.013077663
000150 3e 3c 17 3d d0 1e b6 3c 58 ca fa bc 4b d6 2d bd
       0.036922686 0.02223149 -0.030614063 -0.042440694
000160 33 54 2a bd a0 8b 07 3d dd 45 ed bc 00 25 12 3d
       -0.041584205 0.03309214 -0.028963977 0.035679817
000170 14 42 ed bc ac 5f 1d bd c8 dc 02 3d ed 60 24 3b
       -0.028962173 -0.038421318 0.031948835 0.0025082186
000180 1f da 4a bc f6 5e c5 3c f0 29 7c ba 1b f0 14 bd
       -0.012381106 0.024093132 -0.0009619286 -0.036361795
000190 15 78 33 bd 55 b2 ad 3c f5 50 d0 3c cf 2c ef 3b
       -0.04381569 0.0212032 0.025429228 0.007299043
0001a0 7c ac 25 bd 2e d1 dd 3c bc fd 9f bc a9 87 e7 3c
       -0.040447697 0.027077284 -0.01953017 0.02826293
0001b0 11 bb 17 bd e3 cc dc ba ab 7f 08 bd 55 75 ef 3c
       -0.037043635 -0.0016845729 -0.03332488 0.029230753
0001c0 6d 6d e0 bc 0f 6a 58 bc c2 e3 15 3d 21 50 99 bc
       -0.027395928 -0.01320888 0.03659416 -0.018714966
0001d0 38 da c3 bc 8b c8 e4 3c 81 4f 2a bd 9e e7 19 3d
       -0.023907766 0.027927658 -0.041579727 0.037574403
0001e0 12 9c 5a 3c 5c d9 e1 bb 11 d4 2f 3d 9a c9 84 3c
       0.013342874 -0.0068923663 0.04292685 0.016209412
0001f0 58 87 d8 bc 29 d8 0a 3d 0d d0 eb 3c fc e0 7d 3c
       -0.026431724 0.033897553 0.02878573 0.015495535
000200 13 bc 1f 3d df cb cc bc 14 8e cb bc 9d 0e 23 bc
       0.03899772 -0.024999557 -0.024848022 -0.009952215
000210 57 06 3c 3d 75 b1 1f bd 15 f5 0e bd e9 7c 76 3c
       0.045904484 -0.038987596 -0.034901697 0.015044429
000220 77 4a fe bc 23 7e 08 3d 94 da 3d 3c fa 60 18 3c
       -0.031041367 0.03332342 0.011587758 0.009300465
000230 1a 85 82 bc aa cf f5 3c 0b 3b cd bc f8 85 c6 bc
       -0.015932608 0.030006249 -0.025052568 -0.024233803
000240 11 d1 ee 3c ba fd 14 bc 92 83 55 bc e4 43 92 bc
       0.029152425 -0.009093696 -0.013031857 -0.017854638
000250 ed f1 b9 3c a0 e9 14 bc 92 2d a5 3c af 57 f0 bc
       0.022698367 -0.009088904 0.020163331 -0.029338686
000260 f6 f2 fa bb c8 9d 18 bd ee 4f 05 3d 47 06 85 bc
       -0.0076583577 -0.037259847 0.03254693 -0.016238345
000270 ca a7 41 bc c4 fa 72 3c a1 c8 79 bb be da 98 3c
       -0.011819789 0.014830295 -0.003811397 0.018658992
000280 fb 49 2c 3d a3 33 fb 3a 48 49 35 3c ee d4 1a bd
       0.04206274 0.0019165169 0.011064835 -0.03780072
000290 4a 6e 17 3d 74 5c 9b 3b 52 68 5f 3c cf 7b 35 3d
       0.036970414 0.004741246 0.013635712 0.044307526
0002a0 b5 47 2e bd e4 22 23 3d 0e 12 e8 bc cb d4 9e 3c
       -0.042548854 0.039828196 -0.028328922 0.019388577
0002b0 e9 f1 08 3d 45 94 e2 bc 26 e9 a6 3c ba 8a 93 bc
       0.03343383 -0.027658591 0.020374846 -0.018010486
0002c0 10 99 91 3c 66 68 0c 3b f3 51 9c bc 6d 0a 95 bc
       0.017773181 0.002142453 -0.019082045 -0.018193448
0002d0 f5 6d a3 bc 09 b7 7a bc 5e fe eb 3c 2e a4 26 3d
       -0.019949893 -0.015302428 0.028807815 0.040683918
0002e0 88 7a b2 bc 6f 19 8d bb 8c 44 36 bd e4 76 f2 bc
       -0.021786943 -0.0043060104 -0.044498965 -0.029597707
0002f0 9a bc 86 bc 62 3f df 3c 72 ab 18 bd a8 7d 2e bb
       -0.016447354 0.027251903 -0.037272878 -0.002662519
000300 59 5b 2b 3d 49 3c 25 3d 00 48 15 3d 33 34 17 3d
       0.041835163 0.040340696 0.036445618 0.036915015
000310 cd df 11 3b d4 cf ca 3c 7a 31 8f 3a 2d 2b 7d 3c
       0.002225864 0.024757303 0.0010924779 0.015452188
000320 6d 66 11 3d 3c 2a ee 3b 7a d1 29 ba 30 83 c4 3c
       0.03549807 0.0072682183 -0.0006478053 0.023988336
000330 b6 1e 95 3c 17 5e f9 3c e8 69 ed bb 79 7f 01 bd
       0.01820312 0.030440373 -0.007245291 -0.031615708
000340 2d 3d f3 3c 30 fe 22 bd ec ad 20 bc 8f 6f bd bc
       0.029692257 -0.039793193 -0.009807091 -0.023124484
000350 8a 98 3a bc 23 74 35 3c 2b 3b 88 3c 32 e8 b4 bc
       -0.011388907 0.011075052 0.016629776 -0.022083376
000360 ee 52 13 3c fd 7c 0d 3d 57 87 c3 3c bf d0 e2 3c
       0.00899194 0.034543026 0.023868246 0.027687429
000370 58 53 3e bc 65 f5 0c 3d 9e bb 06 bd 5e e5 82 bc
       -0.01161655 0.034413714 -0.03289377 -0.015978511
000380 22 fb a7 3c 8a dc eb bb 04 a9 00 3d b9 16 ca bc
       0.020505492 -0.007197921 0.031411186 -0.024669038
000390 77 0a ef bc 22 34 bd bc 4c ce 0d 3d 29 03 c7 3b
       -0.029179795 -0.023096148 0.03462057 0.0060733748
0003a0 8a 18 9d bc f3 82 39 3d 6c ce 6a ba 5d fd dd 3c
       -0.01917674 0.0452909 -0.0008957151 0.027098352
0003b0 ef fa 26 3c ca e4 12 3d 34 4e 27 bd b8 6d 2a 3d
       0.010191663 0.03586272 -0.040846065 0.041608542
0003c0 da de 19 3d 3b 90 1d 3d 10 51 09 3d 97 f4 1d bc
       0.037566043 0.038467627 0.033524573 -0.009640834
0003d0 f6 6f 43 bb 7b a4 23 3d 38 92 9c 3c 1e 13 04 3d
       -0.0029821373 0.039951783 0.019112691 0.032244794
0003e0 b0 43 c2 bc 39 a9 05 3c 91 fe c5 bc d3 5b 03 3d
       -0.023713917 0.008158022 -0.024169238 0.032069992
0003f0 3e 8c 0d 3d a8 94 0c bd 01 6d d8 bb f1 c5 0a bd
       0.034557573 -0.034321457 -0.006604791 -0.033880178

model.0.bias f4 [128]
000000 d9 2b f6 3c bf b8 a4 3c 83 7d f3 3a fb c4 be bc
       0.030050205 0.020107625 0.0018576834 -0.023287287
000010 84 ee 33 bc 92 78 19 bc 21 ae 97 3c 35 34 31 bb
       -0.0109821595 -0.009367125 0.018515648 -0.0027039174
000020 8a d1 d4 bc 5d aa 2a 3d 13 2b 2b 3d f8 26 37 3d
       -0.025978822 0.041666377 0.041789126 0.044714898
000030 55 dd 8f bc 32 89 03 bd 63 de 0a bd 43 35 f8 bc
       -0.017561594 -0.03211326 -0.03390349 -0.030298835
000040 2f e2 c0 3b 7b d3 9e bc 2c bc 96 ba 2b 95 e0 bc
       0.005886338 -0.019387951 -0.0011500171 -0.027414879
000050 38 19 29 bc 1a 6d c7 bc c1 7f f4 bc 9c bd 40 bc
       -0.010320954 -0.024344016 -0.029846074 -0.011763956
000060 75 08 78 bb d9 89 e9 3b 87 36 01 bd e6 01 41 3c
       -0.0037846838 0.0071270284 -0.031546142 0.011780238
000070 34 49 14 3d 57 24 0b bd a0 b0 e3 bc b9 55 0e bc
       0.036202624 -0.033970203 -0.027794182 -0.00868743
000080 33 c7 23 3d f3 78 38 3c 2f b3 77 3c 45 f8 8a bc
       0.039984893 0.011259305 0.015118404 -0.016964087
000090 30 f6 cf 3c e5 a6 b9 3b 0f 36 b1 3c 98 86 38 bb
       0.025385946 0.0056656473 0.021632222 -0.0028156396
0000a0 5b 10 f5 3b a9 e7 09 3d a8 f1 43 bb 8d 96 4f bc
       0.0074787564 0.033668194 -0.0029898677 -0.012670171
0000b0 e4 6b 0b bc db cf ac 3c 6c 50 1d bd 05 db 35 bc
       -0.00850961 0.021095207 -0.038406774 -0.011099582
0000c0 ac 9f 13 3d 5f 87 32 3d 68 b0 04 3d 9a 9b 51 3d
       0.036040947 0.04358613 0.032394797 0.051173784
0000d0 4e 9c 18 3d 3a 7e 3f bd d2 ff a6 3c 4a 08 9f bc
       0.03725844 -0.04675124 0.020385657 -0.019413132
0000e0 6e 37 51 3c 91 e0 08 bd 77 8a 43 3d 79 47 eb bc
       0.012769563 -0.03341729 0.047739472 -0.028720604
0000f0 3a 8b d9 3c ca 6c 13 bd cf ef 81 3c aa 66 f0 bc
       0.026555646 -0.03599242 0.01586142 -0.029345829
000100 13 0e e8 3c 8e a7 8c ba 6a db 49 3d 9f c0 32 3c
       0.028327024 -0.0010731088 0.049281515 0.010910182
000110 19 09 06 bc 15 2f 98 3c 05 c7 de bb db b9 9c 3c
       -0.00818088 0.018577138 -0.0067986273 0.019131592
000120 e8 f7 95 3c 78 05 cc 3b 62 a1 ca bc d4 a6 45 3d
       0.018306687 0.006226238 -0.024735156 0.048254803
000130 15 0c 06 bd 9f de ac bc fb 44 80 bc 64 1e fb 3c
       -0.032726366 -0.021102248 -0.015657892 0.03065414
000140 09 ec 86 3b fd 88 85 3c cd 41 10 bc f9 1d bd bc
       0.004117493 0.016300673 -0.008804751 -0.023085581
000150 cd a1 a9 b8 71 02 fe bc 27 0a 82 bb cd 94 88 bc
       -8.088686e-05 -0.031007024 -0.0039684954 -0.016672516
000160 e9 41 2a bc 1c f4 8e 3b 29 2b 00 3c bf d4 d1 bb
       -0.010391691 0.004362596 0.00782279 -0.006403535
000170 93 43 15 bd af 18 2d bd e4 e0 4c 3d 12 02 9d bb
       -0.036441397 -0.04225987 0.05001916 -0.0047915066
000180 3c 7b ae 3c 4a 13 45 3d 18 6f 8f bc 8d 02 1e 3d
       0.021298997 0.0481141 -0.017509028 0.03857665
000190 37 5a 24 bc a6 eb 0e 3d 18 90 14 3c 4b fc 33 bd
       -0.0100312745 0.0348927 0.009067558 -0.043941777
0001a0 a1 79 16 3d 33 bf b0 3c 11 7c b7 3c 63 2b ff bb
       0.036737088 0.021575546 0.022398027 -0.0077871545
0001b0 2a 77 f2 3c 76 dd 53 bc f0 06 db 3c 4b bd b0 bc
       0.029597837 -0.012931218 0.026736706 -0.021574637
0001c0 b6 b1 2b bd e2 3e 01 bd 38 d3 3d 3c 9e 39 11 3d
       -0.041917525 -0.03155411 0.011586003 0.03545534
0001d0 c0 83 5f bc 66 a0 d7 bb 9d 0a 12 bc 98 01 14 bd
       -0.0136422515 -0.0065804003 -0.008913663 -0.036134332
0001e0 a9 c3 13 3d 86 3b dd bc fe c4 2b 3c 50 b4 64 3b
       0.036075268 -0.027005922 0.010483978 0.0034897514
0001f0 b2 1d 32 bd 8d 45 24 3d fb ab 4a 3b 7e 3b 25 bd
       -0.04348535 0.04010539 0.0030925262 -0.04033994

model.2.weight f4 [256, 128]
000000 cf 7c 9e bd 06 21 29 3d a7 9a b6 bd ed c7 09 3d
       -0.07738649 0.04129126 -0.08916216 0.03363793
000010 f8 bf ae bd 1c 1a 9b 3c 9d 1e bc 3c 40 bf 7c 3d
       -0.08532709 0.018933348 0.022963816 0.061705828
000020 f8 1b c7 3c 67 2d 67 3d 7f 9c b8 3c a9 d9 5f bd
       0.024305329 0.056439783 0.02253556 -0.054650936
000030 a0 5b 13 bd 4d 47 82 bd 22 a3 89 bc 9c 40 86 bd
       -0.035976052 -0.06361256 -0.01680142 -0.06555292
000040 12 8f 90 bd 7d 40 2d bc ac 9f 75 bd c6 9a 18 b7
       -0.070585385 -0.010574457 -0.059966728 -9.095942e-06
000050 13 0d 68 3c 11 ac 91 bd ed 9b 9d bd 53 6e a9 bd
       0.014163273 -0.07112897 -0.07695756 -0.08272996
000060 4f 09 fc 3c a2 31 07 3d 59 51 9a bd fb c2 8f 3c
       0.030766157 0.033006318 -0.07535047 0.017549029
000070 7d 4c 35 bd b5 9d a2 3d 46 30 9a 3d c7 64 21 bc
       -0.044262398 0.079402365 0.07528739 -0.009850687
000080 39 d1 94 bc 8e 8d 7a bd 98 88 1a bd 5c 03 8a bd
       -0.018166171 -0.061170153 -0.037727922 -0.06738922
000090 7d ec 95 3d 3c e8 0f bd d4 e3 94 bd b8 78 7e 3d
       0.07320497 -0.035133585 -0.07270017 0.062126845
0000a0 05 d8 20 bd 2d 8f 3d 3d 02 19 c5 3c b1 93 49 3d
       -0.039268512 0.04627912 0.024059776 0.049213115
0000b0 14 af 8f 3d 59 14 57 3d 43 a6 cf bc ad e9 3b 3d
       0.070158154 0.05250964 -0.025347834 0.045877147
0000c0 5e eb 68 3d 5e 58 46 3b 1d ac 18 bc 81 d1 74 bd
       0.05686509 0.0030265073 -0.009318379 -0.05977011
0000d0 fd aa 98 bd 7a 65 8e 3d dd 89 0f bd 8b 5e b4 bb
       -0.074544884 0.06952949 -0.035043586 -0.0055044345
0000e0 af 05 5f bd db e7 c9 3c f5 38 1e bd 69 10 b0 3d
       -0.05444878 0.02464669 -0.038628537 0.0859688
0000f0 d7 57 e0 bc 1a 2c ef 3c f0 b8 fc bb d3 8e 25 3d
       -0.027385635 0.029195834 -0.007712476 0.04041941
000100 af 59 1a bd 11 d4 8d bd 5e 32 b8 bc 03 48 c7 bc
       -0.037683185 -0.06925214 -0.022484954 -0.02432633
000110 7b 9c 8c 3d bc 28 92 3c cc 5a 66 3c 84 5e 80 3d
       0.06865784 0.01784169 0.014059734 0.062680274
000120 dc 5d 1a bd d3 55 6d 3d de b7 5f bd cd f0 a0 bd
       -0.037687168 0.057943176 -0.05461871 -0.07858429
000130 60 80 96 bd 64 89 94 3c cc 3a 52 3c 90 6f 60 bc
       -0.07348704 0.01813192 0.012831401 -0.013698474
000140 28 de ad 3b 64 23 02 bb 36 0a 87 3d 2e fe cf bc
       0.005306024 -0.001985752 0.065937445 -0.025389757
000150 6b bf ae 3d 90 55 30 3b 99 2c 9c 3d 90 22 90 3d
       0.08532604 0.0026906468 0.07625694 0.07037842
000160 86 10 b2 bd ff ad 64 bb ff b8 b4 3c fa 07 ab bd
       -0.08694558 -0.0034893749 0.02206087 -0.08351131
000170 1a 46 93 bd 33 85 38 3c b4 92 6c bd e1 8a 43 bc
       -0.07191105 0.011262226 -0.057757095 -0.011934967
000180 01 68 a6 3d b3 06 30 3b 50 8e 37 bd 27 5a 64 3d
       0.08125306 0.0026859462 -0.044813454 0.05575004
000190 1e 9d 2d 3d e0 e0 4d bd 3b c8 9e 3d 38 ad a1 3d
       0.042386167 -0.050263286 0.07753035 0.07894367
0001a0 00 5f 51 bd a4 a0 d2 3c 13 a0 1c bd e2 f9 94 bd
       -0.05111599 0.025711365 -0.038238596 -0.07274224
0001b0 4c 1b 82 3d 41 4a 9e bd 3c a1 95 3d 8f e3 47 bc
       0.06352863 -0.077290066 0.07306144 -0.01220025
0001c0 28 19 ae bc fa 44 51 bc 5b 2f 6a bc 44 a5 9d bd
       -0.02125223 -0.012772793 -0.014293517 -0.076975375
0001d0 e0 4d c3 3c 62 3e 90 bd c5 e8 81 3d 46 b8 a7 3d
       0.023840845 -0.070431486 0.063432254 0.08189444
0001e0 69 35 5a 3d ec 18 92 3d 08 c7 f1 3c 5f 57 8c bd
       0.053273592 0.0713366 0.02951385 -0.06852602
0001f0 ff 45 e7 3c 4b 60 81 bd e9 92 b9 bb df 01 28 bd
       0.028231619 -0.063171946 -0.005663265 -0.04101741
000200 1d 0f 00 bc 55 fe 86 3d ba ab 38 3d 89 cc ec 3c
       -0.007816103 0.06591479 0.045085646 0.028906124
000210 f1 fd ad bd 18 9d ab bc 1c 3a f4 3c dc e2 7d bd
       -0.08495701 -0.020948932 0.029812865 -0.061983928
000220 fc 12 4e bc 60 16 61 bb fb 15 8d bd e0 9c 84 bd
       -0.012577768 -0.0034345612 -0.06888958 -0.06475234
000230 44 e7 77 bc b0 2a f3 3c 75 5b 71 3d 0b 95 8b 3d
       -0.015130822 0.02968344 0.05892511 0.06815537
000240 fd e4 4d 3c e2 cb a1 bc af 2a b1 3d 99 d8 76 bb
       0.012566802 -0.01975054 0.086507194 -0.0037665723
000250 7f d1 05 3d f1 0b 89 bd cf d0 7f 3d 10 f3 df 3c
       0.032670494 -0.06691731 0.062454995 0.02733758
000260 d5 73 90 3b 9e 84 1b 3d 1b 74 d6 3b e4 e7 8b bd
       0.0044083395 0.03796827 0.0065446026 -0.06831339
000270 12 41 c1 bb 10 3f 63 bb 5c 84 ed bb cb a3 5f bd
       -0.0058976496 -0.003467504 -0.0072484445 -0.054599565
000280 c4 69 4b 3d 5f 16 81 3d 06 c6 aa 3d c5 0f 17 3d
       0.049661413 0.06303095 0.08338551 0.036880273
000290 9b b0 83 3c a9 bd 16 3d c4 a5 c9 bb 15 32 55 3d
       0.016075423 0.036801968 -0.006153794 0.052049715
0002a0 4b bc 89 3d cd 50 73 bc 91 3e 65 bd dc c3 ef bb
       0.06725367 -0.014850807 -0.05596787 -0.0073170494
0002b0 a1 13 ab 3d 92 91 95 bd 98 e2 ea 3c c8 df d5 3c
       0.08353353 -0.07303156 0.028672501 0.026107684
0002c0 73 f1 07 3d ec b4 41 3d 89 f2 78 3d 4d e0 8b 3d
       0.03318925 0.04729168 0.060778175 0.06829891
0002d0 71 0d 78 bc a2 20 6c 3c 94 27 9c 3c 70 05 59 3d
       -0.015139923 0.014412077 0.019061841 0.0529837
0002e0 7c 96 1a bd 21 6d 3b bd a3 1f 46 3c 1a f7 61 bd
       -0.03774117 -0.04575837 0.012092504 -0.055167295
0002f0 e8 3d 7f 3d 2a de a1 bd 1a b6 b0 bd f4 1a 8a 3c
       0.062314898 -0.079037026 -0.08628483 0.016858555
000300 17 9d 27 bd 27 b8 6b 3d 9e d1 18 3c dd dd 7a bd
       -0.040921297 0.05754867 0.00932732 -0.06124674
000310 f3 6e ac bd 5c bf 3f bd ab 46 92 bd e7 77 ad 3d
       -0.084195994 -0.046813354 -0.07142385 0.08470135
000320 f9 f1 4e 3c cb 76 46 3d af 15 3b 3d 35 fb d3 3c
       0.012630933 0.048453134 0.045674976 0.02587662
000330 73 a0 1f 3d 9f e1 37 3c 35 97 83 3d 7c 36 49 3d
       0.038971376 0.011223226 0.06425325 0.049124226
000340 ab 80 0b 3d 14 15 84 3d 64 20 57 bd c1 39 46 3d
       0.034058254 0.06449333 -0.052521124 0.048394922
000350 13 36 eb 3c 80 c1 4a bb d0 02 a9 3d 82 ee 98 3d
       0.028712308 -0.003093809 0.082524896 0.07467367
000360 ea 20 1e 3d c9 76 6c bd 59 d9 68 bd c8 08 34 bc
       0.038605608 -0.05773047 -0.056847904 -0.010988422
000370 5d a6 43 3c 98 36 d2 bc a7 9e 89 bd df d1 f9 3b
       0.01194152 -0.025660798 -0.06719714 0.0076238955
000380 87 ef 1a 3d 48 2a c6 3b be a2 9e bc 2c 50 b2 3d
       0.037826087 0.006047521 -0.01936471 0.08706698
000390 09 5b bb bc ee df e1 3c fb 81 75 3d 2a 2e 36 3c
       -0.022870557 0.027572598 0.059938412 0.011119405
0003a0 91 7c b2 3d 7a e9 b6 bc ed 8d a1 3d 78 13 89 bd
       0.087151654 -0.022328127 0.07888398 -0.066931665
0003b0 41 36 72 3d 4b 02 93 bd d2 0f b4 3d ef 96 1b bd
       0.05913377 -0.07178172 0.0879208 -0.03798574
0003c0 ec 44 27 bd 71 f2 85 bd 90 63 27 3c 7e 59 97 3c
       -0.040837213 -0.06540383 0.010216609 0.01847529
0003d0 53 51 20 bd 80 05 36 3d 66 e8 99 3c 85 0d 6d 3d
       -0.039140057 0.04443884 0.018787574 0.05787422
0003e0 0b 47 08 3d c2 f3 8d bc 7c 78 61 bd b4 8e ab 3d
       0.033270877 -0.017328147 -0.055046543 0.08376828
0003f0 c1 08 0f 3d b2 32 79 3d b9 6c 37 bd 8a c2 80 bd
       0.034920458 0.060839362 -0.04478142 -0.062871054

model.2.bias f4 [256]
000000 fd 57 51 bd 7a 2c 21 3d 65 24 2d 3d 34 1a 3d bd
       -0.051109303 0.039349057 0.042271037 -0.046167567
000010 ee 1d 6d bd 75 2c 93 bd 6f 03 99 bc 72 b0 7c 3a
       -0.05788987 -0.07186214 -0.018678395 0.00096393295
000020 1a 8b 45 bd 7f 53 09 3c e1 60 65 3d f3 30 f2 bc
       -0.04822836 0.008381723 0.056000594 -0.029564356
000030 6d a9 87 bd a4 2c 9f 3d 7a 02 af 3d c2 db 00 3c
       -0.06624112 0.077721864 0.08545394 0.007864894
000040 a0 06 90 bc e4 be 86 3d 53 e8 9b bd 1a 7a 94 3d
       -0.017581284 0.06579378 -0.07612672 0.072498515
000050 8e 49 b9 3d a4 aa b0 3d ee 22 60 3d 9e 51 95 bd
       0.090472326 0.08626297 0.05472081 -0.07290958
000060 cd 58 eb 3c 84 1f 25 bd 68 c0 62 3a f7 13 8a 3d
       0.028728867 -0.04031326 0.00086498866 0.06742089
000070 29 bc 23 bc d3 11 8f 3c 0e e9 d6 bc d9 3a 51 3d
       -0.009993591 0.017464554 -0.026234176 0.051081512
000080 29 8b 8a 3d 7a 8f 9c 3d 76 62 4d bc a3 32 1b 3d
       0.06764824 0.076445535 -0.012535682 0.037890088
000090 ea c4 3e bd 84 29 7d bd 35 e9 2a 3d c5 c0 20 3c
       -0.04657451 -0.06180717 0.04172631 0.009811585
0000a0 dc 3a 69 bd ce d0 d8 bb 80 fa 48 bd 5b ac 8e 3d
       -0.0569409 -0.0066166883 -0.04906702 0.06966468
0000b0 79 26 7f 3d 38 9d a4 3d 36 08 87 3b 37 13 92 3d
       0.06229255 0.080377996 0.004120852 0.07132571
0000c0 40 5b 45 3d 41 c3 68 3b bc 28 c2 bc d3 8e 86 3d
       0.048182726 0.003551677 -0.023701064 0.0657021
0000d0 0b c9 bc bd 39 bb 17 3c 7b b3 f2 3b eb 6b 07 3d
       -0.092180334 0.009260946 0.0074066496 0.033061903
0000e0 95 bb f1 bc 10 4f ad 3b 59 09 0a 3d 73 f2 4e bc
       -0.029508391 0.005288966 0.03370032 -0.012631047
0000f0 db af 7e bd 4d ca 2d bc 5d 0a 41 3d 0f 02 72 bd
       -0.062179428 -0.010607314 0.047129024 -0.059083994
000100 55 d5 89 3c c7 67 b1 bb 38 ac 04 3c 6c dd aa 3d
       0.016825357 -0.0054139826 0.008097701 0.08343014
000110 ef 9c 7b bd de 42 f5 bc 36 6c aa bd 1e 09 5d 3d
       -0.06142896 -0.029939111 -0.08321421 0.053963773
000120 94 a4 04 3d df 15 a4 3c 1e d9 a7 bc 7b be 1d bd
       0.032383516 0.02002996 -0.020489272 -0.038511734
000130 f2 41 22 bd ec f3 2b bd c3 e8 88 bd 6a dd 45 bd
       -0.03961367 -0.04198067 -0.06685021 -0.04830686
000140 1c 94 9c bc 95 4d 56 3d 68 2a 84 3d 93 17 d4 bc
       -0.019113593 0.05232008 0.06453401 -0.025890147
000150 2f fb 0e bc f5 68 0a bd ed 10 a7 3d af 02 07 3d
       -0.008726879 -0.0337915 0.08157525 0.032961544
000160 51 4e 9e 3d d5 36 89 bd 6c 8d 83 3d 1a 7b 79 bd
       0.077297814 -0.066999115 0.064234585 -0.060908414
000170 30 a3 31 bd 5e f7 91 3d bd de 84 bd 53 2e eb 3c
       -0.04336852 0.0712726 -0.064877965 0.028708613
000180 c9 5b 90 ba 8b 85 9f bd 22 37 06 bd a0 04 97 bc
       -0.0011013682 -0.07789143 -0.032767422 -0.018434823
000190 7b af 53 3d 6e 7f f3 3c f0 ad 37 3b 93 07 b7 3d
       0.051681023 0.02972385 0.0028027259 0.089369915
0001a0 92 3d b6 3d 90 8b a3 3d a9 ac dc 3c c7 51 18 3d
       0.08898462 0.07985604 0.0269378 0.037187364
0001b0 8f 89 b0 bd 83 82 7e bd 55 1f 44 bd 2c a3 8f bd
       -0.08619987 -0.062136184 -0.047881443 -0.070135444
0001c0 10 61 27 3c 2b 3a 96 3d e8 c0 1a bd 6a 26 ae 3c
       0.010216013 0.073353134 -0.037781626 0.021258552
0001d0 75 cb 5b bb 69 df 47 bc 2c 75 85 bd 79 52 8a bd
       -0.0033538018 -0.012199261 -0.065164894 -0.06754012
0001e0 1a 0f 7c bc 5d ac f8 3c ed 34 95 3d a7 d2 61 3b
       -0.01538446 0.030355627 0.072854854 0.0034457834
0001f0 bc f6 1e bd 3a f1 76 3d a4 69 85 3c 2d fa 32 3d
       -0.038809523 0.060288645 0.016285725 0.043695617
000200 04 55 85 3b 0f b7 a5 3d c7 24 3e bd f7 3b 9c 3c
       0.0040689725 0.08091556 -0.046421792 0.019071562
000210 81 59 29 bd 8c 44 80 bd 8a 1e a1 3d 05 f3 b1 3d
       -0.041345123 -0.06263074 0.07867153 0.086889304
000220 fd 04 4c bc 51 8c 0c 3d d8 2a 85 bd dc c5 55 bd
       -0.012452361 0.034313504 -0.065023124 -0.052190647
000230 ec 91 82 3d 9f 4f b2 3d 6d 90 5d 3d f9 48 25 3d
       0.06375489 0.08706593 0.054092813 0.040352795
000240 52 65 a2 3d 20 89 4d bd 7e d5 f4 3c 86 d1 25 bd
       0.079294816 -0.0501796 0.029886957 -0.04048302
000250 f7 d5 47 3d 1e 2c aa 3d 2c de 09 3c ce 95 4f bd
       0.048788037 0.08309196 0.008414786 -0.050679974
000260 e6 a7 aa bd e6 df a3 bd bd d5 61 bd 8c b8 3a 3d
       -0.08332805 -0.080016896 -0.055135477 0.045586154
000270 66 94 a2 bd 08 38 65 3d 22 88 52 3c c5 ab 84 bd
       -0.07938461 0.05596164 0.012849839 -0.06478075
000280 95 99 be 3d 9e d2 04 bd f9 f0 8a bd e0 3b f8 3c
       0.09306637 -0.032427423 -0.06784243 0.030301988
000290 9d 1c 48 38 79 94 c1 3c 2a 1d 86 bb d2 27 9f 3b
       4.7710364e-05 0.023630368 -0.004092832 0.004857042
0002a0 ef 39 5d 3d 2b c8 d7 3a dd 84 fd bc 48 9e a7 3d
       0.054010328 0.0016462853 -0.030947143 0.08184487
0002b0 94 cf 54 bd 75 6d 21 3a ae c3 37 3d 0c 87 9e bb
       -0.051955774 0.0006157973 0.04486435 -0.004837876
0002c0 43 67 26 bd 9a 96 28 3a b0 87 9b bd e6 7e 9f bd
       -0.04062582 0.0006431133 -0.0759424 -0.07787876
0002d0 b2 99 bf bc 21 fb 18 bd 5c 73 54 bd e3 02 98 bd
       -0.023388717 -0.03734887 -0.051867828 -0.074224256
0002e0 7f 8b 61 3c 32 06 91 3d ad e5 28 3d ca c7 98 bd
       0.013766169 0.0708126 0.04123466 -0.07459982
0002f0 62 c3 3a 3d f4 1f 45 3d f8 ba a7 bd ce 6e 9f bd
       0.045596488 0.048126176 -0.08189958 -0.07784806
000300 57 49 57 ba 65 54 82 3c 16 ee fb bc fc 11 91 bc
       -0.00082125276 0.015909383 -0.030753177 -0.01770877
000310 d4 ae f5 bb 8f dd 18 bc 03 1a 93 bd 16 d6 75 bd
       -0.007497648 -0.009330167 -0.07182696 -0.06001862
000320 9d 25 3e 3d 7c c0 fe bc 90 bd 9c bc d8 b4 29 bb
       0.04642259 -0.031097643 -0.01913336 -0.0025895145
000330 53 b6 9b 3d 58 05 b1 bd de 8d 7e bd 37 0d 80 3d
       0.07603135 -0.08643597 -0.062147014 0.062525205
000340 38 a3 18 bd c2 c1 1e 3d e4 02 40 bc e9 79 e0 bc
       -0.037265033 0.038759 -0.011719439 -0.027401881
000350 0f 5a 89 bd d4 8a 3c 3c 71 06 9b bd 87 23 9b 3d
       -0.067066304 0.011507709 -0.07569588 0.07575136
000360 02 a4 63 3d de d0 98 bd 89 0d 95 3d 41 c3 17 3d
       0.055576332 -0.07461713 0.07277972 0.037051443
000370 aa 8b 76 3d d1 d2 49 3d 5c 92 d0 bc 37 39 23 bd
       0.060191788 0.049273316 -0.025460415 -0.039849486
000380 ff 15 5e 3d db b7 34 3d b8 8d 97 bc 5f 48 b7 3c
       0.054220196 0.04412065 -0.018500194 0.022373376
000390 90 a3 13 bd 97 6f d1 3c 64 4d 4e 3d c5 65 7e bd
       -0.036044657 0.025565905 0.050366774 -0.062108774
0003a0 d1 9f 87 bd 59 b7 83 bd 80 e4 a2 3d d7 7a 80 bd
       -0.066222794 -0.06431455 0.07953739 -0.0627343
0003b0 bc 39 e4 bc 55 5f 4c bc 3a 96 93 3d 49 ad 82 3d
       -0.027859561 -0.012473901 0.07206388 0.06380708
0003c0 f9 b2 81 ba 7c 84 77 bd 39 bd dd bc d6 65 4a bd
       -0.0009895257 -0.06042908 -0.027067767 -0.049413525
0003d0 45 76 de bc 70 3b 07 3d 92 15 9e bd db 11 b5 bc
       -0.027156005 0.03301567 -0.07718958 -0.02210324
0003e0 33 2b 5f 3d 9f dc aa 3c 8d 80 22 bd 88 04 5f 3d
       0.054484557 0.020857153 -0.039673377 0.05444768
0003f0 37 fb dd bc 87 a2 ef 3c 36 80 93 3c e9 ef a4 3d
       -0.027097328 0.029252304 0.018005472 0.08053572

model.4.weight f4 [512, 256]
000000 b0 ae e1 3c 37 95 ff bb aa 55 ef bc 68 4b 6a 3c
       0.027549118 -0.00779977 -0.029215652 0.014300205
000010 e3 58 a4 3c ec 49 da ba 5f 7a 84 3b cb 96 dc 3c
       0.020061916 -0.001665411 0.004042908 0.026927372
000020 87 0d 1b bd 0d b8 09 3d 0f 42 ea 3b 8d ce d2 3c
       -0.037854698 0.03362279 0.007148988 0.025733257
000030 75 77 5e 3d e4 db 00 3d 56 0a 47 3d ce 67 17 bc
       0.05431314 0.031459704 0.04859384 -0.009241058
000040 d3 fa f1 3c ff 0a a0 bc 20 8b ca 3c ef db 3e 3d
       0.029538548 -0.019536493 0.024724543 0.046596464
000050 af 69 74 3b 71 0e 32 bd 25 18 47 bc 11 b2 f1 3c
       0.0037294438 -0.043470804 -0.012151753 0.029503854
000060 e8 ac db bc c4 52 b1 bc 6f fe 8a bd bd fe 21 bd
       -0.026815847 -0.021645911 -0.067868106 -0.039549578
000070 6a ab 3c 3c 23 1b 2d 3d cd d7 0b 3d 6f 2c d3 bc
       0.011515478 0.042262208 0.03414135 -0.025778024
000080 3d 2c 1c bd 0a 76 1a bd 9a 64 65 bd c3 9c 5b bd
       -0.038128126 -0.037710227 -0.056004144 -0.053616296
000090 4a a3 4c bd 00 85 2b bc dd f9 17 3d 01 6d c4 3c
       -0.049960412 -0.010468721 0.037103523 0.023977758
0000a0 78 a1 38 bd 14 59 b1 3b 41 d3 bc b9 ed b1 50 3d
       -0.045075864 0.0054122303 -0.0003601555 0.050950933
0000b0 a8 ed 61 bd 84 8e c1 bb fa 8d 69 bd 8a 1d 50 3d
       -0.055158287 -0.0059068818 -0.057020165 0.05080942
0000c0 38 37 e0 3a cb 7d d0 bc 48 7b bc 3a 38 4c 3f 3d
       0.00171063 -0.025450608 0.0014380002 0.046703547
0000d0 53 cc 39 3d d3 bf 6c bd 74 08 2d bc c0 fd 6a 3d
       0.045360874 -0.057800125 -0.010561097 0.0573709
0000e0 74 8c 13 bc 18 54 d7 bc d2 12 73 bd 8e 78 20 3c
       -0.009005655 -0.026285216 -0.05934412 0.0097943675
0000f0 4a c7 85 bc 37 1b 0f 3d 29 5d 1e bd dc fe 10 bd
       -0.01633038 0.034938063 -0.038663063 -0.035399303
000100 52 1d 20 3d 13 ad 31 bd 83 ec a9 3c 04 19 5c bd
       0.039090462 -0.043377947 0.02074266 -0.053734794
000110 e7 4b 61 3d 06 b0 11 bc 23 2d 41 bd ae c9 1e 3b
       0.055004027 -0.008892065 -0.047162186 0.0024229097
000120 39 5b f0 bc 42 6a 39 3d b2 20 07 bc 7e ee e1 bc
       -0.029340373 0.04526735 -0.008247541 -0.027579542
000130 ec 37 e0 bc cd 0e 96 3c 34 6b 7b bb 87 64 5e bc
       -0.027370416 0.018317604 -0.0038363459 -0.013573772
000140 29 5c 16 3d e9 4a 29 bd f1 02 e7 bc dd a4 4b 3c
       0.036708985 -0.041331206 -0.028199645 0.012429443
000150 d7 6d 94 3c 88 f3 88 bd 5d 0a 0d bd 22 45 50 3d
       0.018118782 -0.06687075 -0.03443371 0.05084718
000160 56 e9 a5 bc 06 a4 47 3c 62 54 0c 3b 68 55 c8 3c
       -0.020252865 0.012185102 0.00214126 0.024454787
000170 80 02 40 bd 23 6f b3 bc b0 b8 15 3d f9 34 7e bb
       -0.046877384 -0.02190358 0.036553085 -0.0038788898
000180 91 13 56 3c 83 5d 14 3c 07 c5 54 3d c0 07 3c 3c
       0.013066188 0.009055498 0.051945712 0.011476457
000190 93 55 f2 bc ce b7 24 3d eb 3c 50 3d c7 eb c3 3c
       -0.02958182 0.040214352 0.050839346 0.023916138
0001a0 ba 39 60 bc 0f b0 a6 bb f0 f3 a5 bc eb 73 15 3d
       -0.013685638 -0.005086906 -0.02025792 0.0364875
0001b0 23 fa bd 3c b2 e4 c1 bb 75 29 4f 3d 45 ac 99 bc
       0.023190564 -0.005917155 0.050576646 -0.018758902
0001c0 d2 b0 5b 3d 70 61 0a 3c bf 00 7b 3c 33 8d dc 3c
       0.053635426 0.0084460825 0.015320002 0.026922798
0001d0 32 ef 07 3d 5f 39 4e 3d ae 00 06 3c e9 b6 93 3c
       0.0331871 0.050347682 0.008178873 0.018031554
0001e0 73 e2 c7 3c ec e2 d1 bb e3 f5 5a bc f5 8e c3 bc
       0.024399972 -0.006405225 -0.013364288 -0.023871878
0001f0 78 73 1c bd bd 93 20 bd b9 34 ce b8 f4 f4 30 ba
       -0.038196057 -0.039203394 -9.832666e-05 -0.0006750368
000200 16 03 2a 3d dc 4b b2 3b db c0 45 bd 96 c4 47 3d
       0.04150685 0.005441172 -0.048279624 0.048771463
000210 e1 f8 35 3d 31 05 0c 3d 99 5c 7b 3c 75 3c e4 bc
       0.044426803 0.03418464 0.015341901 -0.02786086
000220 cc df 3b bc b9 d6 b8 3c 86 40 aa bc 58 72 68 bd
       -0.011466932 0.022563325 -0.02078272 -0.05674967
000230 5b 11 55 3d c5 9e 92 3b 8a 6f ac 3c 2f 60 f0 3c
       0.052018505 0.004474493 0.02104928 0.029342739
000240 f3 fa 41 bd 30 d9 41 3c 22 c8 82 bd d9 d2 61 3d
       -0.047358464 0.011831567 -0.063858286 0.05513272
000250 8f 5a 44 3b 0c f2 30 bd d4 0e 69 3d 65 52 89 3d
       0.0029961204 -0.043199584 0.056898907 0.06705169
000260 d8 c0 10 bd ca a0 08 bd a9 c2 73 3c bf 6a db 3c
       -0.03534016 -0.033356465 0.014877954 0.026784299
000270 59 97 07 3d 7b 11 11 3d 06 8d 80 3c 51 84 65 bd
       0.03310332 0.03541706 0.015692245 -0.05603439
000280 70 75 4d bd cb 94 0e 3d 21 71 2d bc 46 f7 d4 3b
       -0.050160825 0.03480987 -0.010586054 0.006499204
000290 66 90 3a 3d be 06 ff 3c 60 15 7e bc ac a2 7f bd
       0.045547865 0.031131145 -0.015508026 -0.062410995
0002a0 26 57 00 bd 89 52 ce 3c bc 9d 07 bd d6 61 46 bd
       -0.03133311 0.02518584 -0.03310941 -0.048433147
0002b0 d9 80 4a bd 44 4e e5 3c 03 7e 57 bd 81 cc 2a bd
       -0.049439285 0.027991422 -0.05261041 -0.041698936
0002c0 de 4c 44 3d 83 48 1d bd 08 ed c2 bc 64 ba 28 bd
       0.04792487 -0.03839923 -0.023794666 -0.04119338
0002d0 b4 9d fe 3c 7a 6f 27 3c 6f 12 41 3b a1 08 ed 3c
       0.031081058 0.010219449 0.002946045 0.028934779
0002e0 0d d4 c1 3c aa 4e 2b bd e4 02 48 bc af 5c 60 3d
       0.023660684 -0.041823067 -0.01220772 0.05477589
0002f0 13 0c 3e 3c 67 2a 57 3d 03 f6 85 bd 39 6e c1 ba
       0.011599558 0.052530672 -0.06541064 -0.001475758
000300 56 e9 00 bd dd bd 64 bb c9 26 08 bd 70 d7 89 bd
       -0.031472526 -0.0034903206 -0.033240113 -0.067305446
000310 b5 b3 5c 3d 8f 0a 83 3c d6 a4 ef ba af d9 1d 3d
       0.05388232 0.015996246 -0.0018283378 0.038537677
000320 07 be f0 3c 26 d6 1f bd 13 30 2e 3c da 7b 45 bd
       0.029387487 -0.039022587 0.010631579 -0.048213817
000330 ed 26 1a 3d 23 a9 5e bd 03 a4 87 bd 56 59 9c 3a
       0.03763478 -0.05436052 -0.0662308 0.001192848
000340 10 5b 22 bb 22 39 96 bc 88 c3 37 3d cd c4 38 bd
       -0.0024773516 -0.01833779 0.044864208 -0.04510956
000350 63 6b 72 bd 3a 87 37 bd 3f 06 c0 bc be 6a 27 bd
       -0.059184443 -0.044806696 -0.023440478 -0.04087328
000360 a5 41 82 bd 36 ce 21 bd cb 98 b6 3c 9a c7 17 bd
       -0.06360177 -0.0395033 0.022289654 -0.03705559
000370 4d d4 7d ba e5 33 92 3c 59 79 e3 bc 2e c9 53 bb
       -0.00096828194 0.01784701 -0.027767824 -0.0032315957
000380 fe dc 3d 3d c5 13 45 bc 6f 7f af bc 4c d1 85 bd
       0.046353333 -0.012028639 -0.02142307 -0.06534061
000390 03 12 41 bd cc 53 83 bd 17 d2 31 bc ac ed 4d 3d
       -0.047136318 -0.06412467 -0.010853312 0.05027549
0003a0 d4 87 eb 3c c3 f3 4c 3c cc c3 2f bd fb 93 57 bd
       0.028751291 0.012509289 -0.042911336 -0.05263136
0003b0 4a 8d ff 3b a9 4d 52 3d 4c d1 9e 3c ea 36 7a bd
       0.0077988254 0.051343594 0.01938691 -0.061087526
0003c0 66 0a 0b 3d 72 da ea bc c3 07 c3 3c c7 1a 81 3d
       0.033945464 -0.028668616 0.023807412 0.063039355
0003d0 c0 5b 28 bd a1 87 af 3a 61 60 55 3d 93 96 8d bc
       -0.041103125 0.0013391861 0.052093867 -0.017283713
0003e0 a0 a9 6a 3c d4 31 12 bd 71 8e 10 3d e0 27 34 bd
       0.014322668 -0.03569205 0.035292093 -0.04398334
0003f0 28 7e 1b 3d c5 b0 53 3d b8 41 29 bc 16 43 56 3d
       0.03796211 0.051682252 -0.01033061 0.052310072

model.4.bias f4 [512]
000000 79 2c bb bc ac 08 52 bc 3d 23 f2 3c aa c6 58 3d
       -0.022848355 -0.01281945 0.029557819 0.052923836
000010 d2 cb 0a 3d ba ec b9 3c c8 86 b3 3c d5 9b 3e bd
       0.033885784 0.022695888 0.021914855 -0.04653533
000020 75 22 07 bd c7 01 59 3c 0f 48 2c bc ba be 44 bc
       -0.032991845 0.013245053 -0.010515227 -0.012008363
000030 46 97 09 3d 08 b4 6f 3d c0 25 82 3b 12 8d 5a 3c
       0.03359153 0.0585213 0.0039717853 0.013339298
000040 67 91 6b 3d 54 ff 57 bd 92 36 66 bd 5e 46 cb bc
       0.057511713 -0.052733734 -0.056204386 -0.024813827
000050 bd 0c 22 3d 3d e0 c6 3c 01 86 59 bd f8 72 b1 bc
       0.03956293 0.024276847 -0.05310631 -0.021661267
000060 5a 5c 5d bb b5 bf 84 3a 2c 03 33 bd e3 81 01 bc
       -0.003377697 0.0010127934 -0.043704197 -0.007904503
000070 25 28 f7 3c 30 cb 50 bd 8e 02 99 3b c1 2a 28 bd
       0.03017051 -0.050975025 0.004669494 -0.0410564
000080 90 79 3d 3d 45 ed ed bc 44 86 a9 bc ad c5 75 3d
       0.04625851 -0.029043803 -0.020693906 0.06000297
000090 48 36 83 bd 4d bd 61 3d c0 38 24 3d d1 8a de bc
       -0.06406838 0.055112172 0.040093184 -0.027165802
0000a0 8d 68 62 bd 92 fc 7f bd fc dc 44 3d e5 9e bc bc
       -0.05527549 -0.06249673 0.04806231 -0.023024986
0000b0 ba 69 93 3a fd 1c 5b ba 24 7b 79 3d 24 fd 5a 3d
       0.0011246719 -0.00083585066 0.06090845 0.05346407
0000c0 d6 d2 2b bd 5a 79 6b 3d 51 21 72 3b 3d d0 0c 3d
       -0.041949116 0.057488777 0.0036946128 0.03437828
0000d0 ea 3c bb 3b 6d 9e 8d ba 9a 27 90 bc b4 e3 ac bc
       0.0057140486 -0.0010804661 -0.017597008 -0.021104671
0000e0 d6 5f 1c 3d 92 3d 17 3d e2 f6 a9 3c 7f e0 c8 3c
       0.038177334 0.036923952 0.020747606 0.02452111
0000f0 e8 4c 4d bd 19 f0 f4 bc 18 d9 04 bc ab 07 5a 3c
       -0.05012217 -0.029899644 -0.0081084 0.013307492
000100 40 6c e8 3a 65 64 b9 bb a4 8e e0 3c 4c c6 2b bd
       0.0017732456 -0.00565772 0.027411766 -0.041937158
000110 ca 32 53 bc b6 0a 8b 3c 36 75 0c bd 33 30 0d bd
       -0.012890527 0.01697288 -0.03429147 -0.034469794
000120 3e e3 18 3d 9f cc 8d 3c 9f 15 7f 39 b6 30 c8 bc
       0.03732609 0.017309485 0.0002432675 -0.02443729
000130 81 4d 77 3c 9b 16 b6 3c b9 3b 20 3c 53 6f 0f bd
       0.015094162 0.022227576 0.009779864 -0.035018276
000140 81 ac 22 bd e0 d0 2f bd cb 9a 73 3d 51 bf 89 3c
       -0.039715294 -0.042923808 0.059473794 0.01681486
000150 13 e0 80 3c 5e 92 fb 3c f8 f5 4b 3d f0 64 fb 3c
       0.015731847 0.030709442 0.04979512 0.03068778
000160 50 dc 88 3d 15 4b e6 bc 89 37 80 3b 2a 94 f3 bc
       0.06682646 -0.028111974 0.0039128703 -0.029733736
000170 5e 20 48 3c 94 d9 f9 bc a6 ed 59 bd 31 db aa bc
       0.012214748 -0.030499257 -0.053205155 -0.020856472
000180 c6 79 8c bd c0 69 da bc a2 0f 97 3b 47 cc 58 3c
       -0.06859164 -0.026661754 0.004610018 0.013232297
000190 d8 27 f2 3c 0c 27 d2 3b 15 a9 02 bd 46 d2 b1 bc
       0.029560015 0.006413346 -0.03189953 -0.021706712
0001a0 5a 36 70 3d 9f c4 26 3d fc 28 07 bd f7 28 72 bc
       0.058645584 0.040714856 -0.03299807 -0.014780275
0001b0 41 5a 67 3c e3 08 5a 3d 58 a3 0d bd 91 37 f1 3c
       0.014120639 0.05323113 -0.034579605 0.029445441
0001c0 e1 bf 3f bd 43 48 b2 3a c9 c6 82 bc 96 f0 55 3d
       -0.04681385 0.0013601858 -0.015963929 0.052231394
0001d0 37 dc 94 3c 0e 84 44 3c 21 a5 fa 3c 10 70 77 bd
       0.018171413 0.011994375 0.030596318 -0.060409606
0001e0 86 2c 47 3d 9b 29 40 bd 05 bb 7f bc 31 cc 84 3c
       0.048626445 -0.046914678 -0.015608554 0.016210647
0001f0 66 6f 47 bd 39 30 3b bb fe 6f eb 3a 86 ac 8b bc
       -0.048690222 -0.0028562678 0.0017962453 -0.017050039
000200 bb 69 73 bd 9f bf 30 3c bf 80 f4 3c 34 21 07 bd
       -0.059427004 0.0107878735 0.029846547 -0.03299065
000210 8d 4e da bb 8c cd 79 bd c7 18 4a 3d c2 e1 04 bd
       -0.006662196 -0.06098704 0.049340036 -0.032441862
000220 33 44 50 bd fb 91 eb bc 3f c2 a7 3c 06 9d 89 bc
       -0.05084629 -0.028756132 0.020478366 -0.016798507
000230 24 52 34 bd 12 12 07 3d 15 e3 61 3d e2 4d f5 3c
       -0.044023648 0.032976218 0.055148203 0.029944364
000240 80 bd aa 3c ae d9 1c bc ea e0 29 3d 20 a3 0c 3d
       0.020842314 -0.009573383 0.04147426 0.034335256
000250 5a bf 4a bd 34 57 21 3c f3 0f 9d 3b 01 04 32 bd
       -0.049498893 0.009847451 0.004793161 -0.04346085
000260 ac 8e 9e 3c 78 26 47 3d 9a 2b c4 bc cb c3 40 3b
       0.01935514 0.04862067 -0.023946572 0.0029413577
000270 85 01 41 bc 7d 16 5c bd 2b 4e 0f 3d 01 77 08 3d
       -0.011780147 -0.053732384 0.034986656 0.033316616
000280 3a f1 c2 bc 69 4e 21 3d 97 c8 17 bd fb 8c ff 3c
       -0.023796666 0.03938142 -0.03705653 0.031195154
000290 fb f2 c2 bc ed 94 6e 3d 34 34 6b bc 95 2e 46 3d
       -0.023797503 0.058247495 -0.014355708 0.048384268
0002a0 97 f7 1b bd 06 a1 04 3d b6 be 32 3d 1e df 37 bd
       -0.038077917 0.032380126 0.043638907 -0.044890516
0002b0 db d9 25 bd 48 b9 1d bc 6a 67 44 3b c3 32 75 3d
       -0.040490966 -0.009626694 0.0029968866 0.059862863
0002c0 1e a0 62 bd aa 3f d2 bc 2f 01 90 bc dc e5 82 3c
       -0.05532848 -0.025665123 -0.01757869 0.015978746
0002d0 8c ac 56 bd 94 81 bf bc 7d 1b d8 3c 27 bd 43 bd
       -0.052410647 -0.023377217 0.026380295 -0.04778781
0002e0 35 43 85 3d 0c 61 5d bd 35 4e 1a 3d 72 d8 b7 3c
       0.06506959 -0.05404763 0.03767224 0.022442076
0002f0 2c 7a 39 bd ed 8e 8b 3d 7e a7 30 3d 45 0e da 3c
       -0.045282528 0.0681437 0.043128483 0.026618132
000300 6e d0 23 bc 1e 24 06 bd 43 2d d4 bc bb 66 26 bd
       -0.009998424 -0.032749288 -0.025900489 -0.040625315
000310 3b 22 66 bc 61 89 60 bd 46 cb 30 3d 80 39 1b 3d
       -0.014046247 -0.054818515 0.043162607 0.037896633
000320 7f 5e 02 bd 09 a8 1a 3d 82 d3 a3 bc 4b e5 35 bd
       -0.0318284 0.037757907 -0.019998316 -0.044408124
000330 ef 44 24 bd 28 d2 a8 3c bf 73 11 3c a0 d9 85 bc
       -0.040104803 0.020608023 0.008877694 -0.016339123
000340 12 57 80 bc 46 02 4c 3d 9d 25 c3 3c 4f 5a ea 3c
       -0.015666518 0.049806856 0.023821646 0.028607516
000350 9c 9f 7a 3d 9a ae 2f 3d 9c 0e bd 39 9a 11 1f bc
       0.06118737 0.042891122 0.00036059774 -0.009708786
000360 0c 16 5a 3d 94 d2 80 3b 83 36 4f bd 68 6f 21 3d
       0.05324368 0.003931353 -0.050589096 0.039412886
000370 99 b7 3e bd 87 a4 7e 3a 0f 2c b5 bc 5b f2 3e 3d
       -0.04656181 0.00097138475 -0.022115735 0.046617847
000380 ab 82 11 bd bf 28 a2 3c e7 70 fe 3c b5 7b de bc
       -0.035525005 0.01979482 0.031059695 -0.027158597
000390 03 84 1e 3c a5 95 f4 3a 5a 4d 76 3d a0 3c ae bb
       0.009675029 0.001866032 0.060132362 -0.0053172857
0003a0 4a d4 5f 3d 9d f4 d0 3c b9 e4 e3 3c 3c f3 3a bd
       0.054645814 0.025507266 0.027819024 -0.045642123
0003b0 7d 78 ef 3c 15 8c 84 bc c3 df 73 bd 79 c7 a9 3b
       0.029232258 -0.016180078 -0.059539568 0.0051812497
0003c0 bd d9 b0 bc ea a7 65 3d a6 87 00 3c ca 0b 35 bd
       -0.0215882 0.05606834 0.007844841 -0.044200696
0003d0 60 3e 3c 3d c4 2d 13 bd da 25 4c bd c0 aa ba bc
       0.045957923 -0.035932317 -0.049840786 -0.022786498
0003e0 c8 54 74 3d 48 d8 c8 3c 22 e7 b5 3c c2 07 3e bc
       0.059651166 0.024517193 0.02220494 -0.011598529
0003f0 a7 e8 72 3c ca d8 42 bd 4a b7 26 3c c7 e0 ab 3c
       0.014825976 -0.047570027 0.010175535 0.020981206
